module {
  func.func @main(%arg0: !torch.vtensor<[10,784],f32>) -> !torch.vtensor<[10,10],f32> {
    %0 = torch.vtensor.literal(dense_resource<torch_tensor_128_784_torch.float32> : tensor<128x784xf32>) : !torch.vtensor<[128,784],f32>
    %int0 = torch.constant.int 0
    %int1 = torch.constant.int 1
    %1 = torch.aten.transpose.int %0, %int0, %int1 : !torch.vtensor<[128,784],f32>, !torch.int, !torch.int -> !torch.vtensor<[784,128],f32>
    %2 = torch.aten.mm %arg0, %1 : !torch.vtensor<[10,784],f32>, !torch.vtensor<[784,128],f32> -> !torch.vtensor<[10,128],f32>
    %int1_0 = torch.constant.int 1
    %3 = torch.aten.mul.Scalar %2, %int1_0 : !torch.vtensor<[10,128],f32>, !torch.int -> !torch.vtensor<[10,128],f32>
    %4 = torch.vtensor.literal(dense_resource<torch_tensor_128_torch.float32> : tensor<128xf32>) : !torch.vtensor<[128],f32>
    %int1_1 = torch.constant.int 1
    %5 = torch.aten.mul.Scalar %4, %int1_1 : !torch.vtensor<[128],f32>, !torch.int -> !torch.vtensor<[128],f32>
    %int1_2 = torch.constant.int 1
    %6 = torch.aten.add.Tensor %3, %5, %int1_2 : !torch.vtensor<[10,128],f32>, !torch.vtensor<[128],f32>, !torch.int -> !torch.vtensor<[10,128],f32>
    %7 = torch.aten.relu %6 : !torch.vtensor<[10,128],f32> -> !torch.vtensor<[10,128],f32>
    %8 = torch.vtensor.literal(dense_resource<torch_tensor_10_128_torch.float32> : tensor<10x128xf32>) : !torch.vtensor<[10,128],f32>
    %int0_3 = torch.constant.int 0
    %int1_4 = torch.constant.int 1
    %9 = torch.aten.transpose.int %8, %int0_3, %int1_4 : !torch.vtensor<[10,128],f32>, !torch.int, !torch.int -> !torch.vtensor<[128,10],f32>
    %10 = torch.aten.mm %7, %9 : !torch.vtensor<[10,128],f32>, !torch.vtensor<[128,10],f32> -> !torch.vtensor<[10,10],f32>
    %int1_5 = torch.constant.int 1
    %11 = torch.aten.mul.Scalar %10, %int1_5 : !torch.vtensor<[10,10],f32>, !torch.int -> !torch.vtensor<[10,10],f32>
    %12 = torch.vtensor.literal(dense_resource<torch_tensor_10_torch.float32> : tensor<10xf32>) : !torch.vtensor<[10],f32>
    %int1_6 = torch.constant.int 1
    %13 = torch.aten.mul.Scalar %12, %int1_6 : !torch.vtensor<[10],f32>, !torch.int -> !torch.vtensor<[10],f32>
    %int1_7 = torch.constant.int 1
    %14 = torch.aten.add.Tensor %11, %13, %int1_7 : !torch.vtensor<[10,10],f32>, !torch.vtensor<[10],f32>, !torch.int -> !torch.vtensor<[10,10],f32>
    %int1_8 = torch.constant.int 1
    %false = torch.constant.bool false
    %15 = torch.aten._softmax %14, %int1_8, %false : !torch.vtensor<[10,10],f32>, !torch.int, !torch.bool -> !torch.vtensor<[10,10],f32>
    return %15 : !torch.vtensor<[10,10],f32>
  }
}

{-#
  dialect_resources: {
    builtin: {
      torch_tensor_128_784_torch.float32: "…",
      torch_tensor_128_torch.float32: "…",
      torch_tensor_10_128_torch.float32: "…",
      torch_tensor_10_torch.float32: "…"
    }
  }
#-}

