module {
  func.func @main(%arg0: !torch.vtensor<[10,784],f32>) -> !torch.vtensor<[10,10],f32> {
    %none = torch.constant.none
    %float1.000000e00 = torch.constant.float 1.000000e+00
    %true = torch.constant.bool true
    %0 = torch.vtensor.literal(dense_resource<torch_tensor_10_torch.float32> : tensor<10xf32>) : !torch.vtensor<[10],f32>
    %1 = torch.vtensor.literal(dense_resource<torch_tensor_10_128_torch.float32> : tensor<10x128xf32>) : !torch.vtensor<[10,128],f32>
    %2 = torch.vtensor.literal(dense_resource<torch_tensor_128_torch.float32> : tensor<128xf32>) : !torch.vtensor<[128],f32>
    %3 = torch.vtensor.literal(dense_resource<torch_tensor_128_784_torch.float32> : tensor<128x784xf32>) : !torch.vtensor<[128,784],f32>
    %int0 = torch.constant.int 0
    %int1 = torch.constant.int 1
    %4 = torch.aten.transpose.int %3, %int0, %int1 : !torch.vtensor<[128,784],f32>, !torch.int, !torch.int -> !torch.vtensor<[784,128],f32>
    %5 = torch.aten.mm %arg0, %4 : !torch.vtensor<[10,784],f32>, !torch.vtensor<[784,128],f32> -> !torch.vtensor<[10,128],f32>
    %6 = torch.aten.mul.Scalar %5, %int1 : !torch.vtensor<[10,128],f32>, !torch.int -> !torch.vtensor<[10,128],f32>
    %7 = torch.aten.mul.Scalar %2, %int1 : !torch.vtensor<[128],f32>, !torch.int -> !torch.vtensor<[128],f32>
    %8 = torch.aten.add.Tensor %6, %7, %int1 : !torch.vtensor<[10,128],f32>, !torch.vtensor<[128],f32>, !torch.int -> !torch.vtensor<[10,128],f32>
    %9 = torch.aten.relu %8 : !torch.vtensor<[10,128],f32> -> !torch.vtensor<[10,128],f32>
    %10 = torch.aten.transpose.int %1, %int0, %int1 : !torch.vtensor<[10,128],f32>, !torch.int, !torch.int -> !torch.vtensor<[128,10],f32>
    %11 = torch.aten.mm %9, %10 : !torch.vtensor<[10,128],f32>, !torch.vtensor<[128,10],f32> -> !torch.vtensor<[10,10],f32>
    %12 = torch.aten.mul.Scalar %11, %int1 : !torch.vtensor<[10,10],f32>, !torch.int -> !torch.vtensor<[10,10],f32>
    %13 = torch.aten.mul.Scalar %0, %int1 : !torch.vtensor<[10],f32>, !torch.int -> !torch.vtensor<[10],f32>
    %14 = torch.aten.add.Tensor %12, %13, %int1 : !torch.vtensor<[10,10],f32>, !torch.vtensor<[10],f32>, !torch.int -> !torch.vtensor<[10,10],f32>
    %values, %indices = torch.aten.max.dim %14, %int1, %true : !torch.vtensor<[10,10],f32>, !torch.int, !torch.bool -> !torch.vtensor<[10,1],f32>, !torch.vtensor<[10,1],si64>
    %15 = torch.aten.sub.Tensor %14, %values, %float1.000000e00 : !torch.vtensor<[10,10],f32>, !torch.vtensor<[10,1],f32>, !torch.float -> !torch.vtensor<[10,10],f32>
    %16 = torch.aten.exp %15 : !torch.vtensor<[10,10],f32> -> !torch.vtensor<[10,10],f32>
    %17 = torch.prim.ListConstruct %int1 : (!torch.int) -> !torch.list<int>
    %18 = torch.aten.sum.dim_IntList %16, %17, %true, %none : !torch.vtensor<[10,10],f32>, !torch.list<int>, !torch.bool, !torch.none -> !torch.vtensor<[10,1],f32>
    %19 = torch.aten.div.Tensor %16, %18 : !torch.vtensor<[10,10],f32>, !torch.vtensor<[10,1],f32> -> !torch.vtensor<[10,10],f32>
    return %19 : !torch.vtensor<[10,10],f32>
  }
}

{-#
  dialect_resources: {
    builtin: {
      torch_tensor_10_torch.float32: "…",
      torch_tensor_10_128_torch.float32: "…",
      torch_tensor_128_torch.float32: "…",
      torch_tensor_128_784_torch.float32: "…"
    }
  }
#-}

