module {
  func.func @main(%arg0: tensor<10x784xf32>) -> tensor<10x10xf32> {
    %cst = stablehlo.constant dense_resource<torch_tensor_10_torch.float32> : tensor<10xf32>
    %cst_0 = stablehlo.constant dense_resource<torch_tensor_10_128_torch.float32> : tensor<10x128xf32>
    %cst_1 = stablehlo.constant dense_resource<torch_tensor_128_torch.float32> : tensor<128xf32>
    %cst_2 = stablehlo.constant dense_resource<torch_tensor_128_784_torch.float32> : tensor<128x784xf32>
    %cst_3 = stablehlo.constant dense<0.000000e+00> : tensor<10x128xf32>
    %cst_4 = stablehlo.constant dense<0xFF800000> : tensor<f32>
    %cst_5 = stablehlo.constant dense<0.000000e+00> : tensor<f32>
    %ones_i64 = arith.constant dense<1> : tensor<1xi64>
  
    %0 = stablehlo.transpose %cst_2, dims = [1, 0] : (tensor<128x784xf32>) -> tensor<784x128xf32>
    %1 = stablehlo.dot_general %arg0, %0, contracting_dims = [1] x [0] : (tensor<10x784xf32>, tensor<784x128xf32>) -> tensor<10x128xf32>
    %2 = stablehlo.convert %ones_i64 : (tensor<1xi64>) -> tensor<1xf32>
    %ones_f32 = stablehlo.reshape %2 : (tensor<1xf32>) -> tensor<f32>
    %4 = stablehlo.broadcast_in_dim %1, dims = [0, 1] : (tensor<10x128xf32>) -> tensor<10x128xf32>
    %5 = stablehlo.broadcast_in_dim %ones_f32, dims = [] : (tensor<f32>) -> tensor<10x128xf32>
    %6 = stablehlo.multiply %4, %5 : tensor<10x128xf32>
    %7 = stablehlo.broadcast_in_dim %ones_f32, dims = [] : (tensor<f32>) -> tensor<128xf32>
    %8 = stablehlo.broadcast_in_dim %cst_1, dims = [0] : (tensor<128xf32>) -> tensor<128xf32>
    %9 = stablehlo.multiply %7, %8 : tensor<128xf32>
    %10 = stablehlo.broadcast_in_dim %6, dims = [0, 1] : (tensor<10x128xf32>) -> tensor<10x128xf32>
    %11 = stablehlo.broadcast_in_dim %9, dims = [1] : (tensor<128xf32>) -> tensor<10x128xf32>
    %12 = stablehlo.add %10, %11 : tensor<10x128xf32>
    %13 = stablehlo.maximum %12, %cst_3 : tensor<10x128xf32>

    %14 = stablehlo.transpose %cst_0, dims = [1, 0] : (tensor<10x128xf32>) -> tensor<128x10xf32>
    %15 = stablehlo.dot_general %13, %14, contracting_dims = [1] x [0] : (tensor<10x128xf32>, tensor<128x10xf32>) -> tensor<10x10xf32>

    %16 = stablehlo.broadcast_in_dim %15, dims = [0, 1] : (tensor<10x10xf32>) -> tensor<10x10xf32>
    %17 = stablehlo.broadcast_in_dim %ones_f32, dims = [] : (tensor<f32>) -> tensor<10x10xf32>
    %18 = stablehlo.multiply %16, %17 : tensor<10x10xf32>
    %19 = stablehlo.broadcast_in_dim %ones_f32, dims = [] : (tensor<f32>) -> tensor<10xf32>
    %20 = stablehlo.broadcast_in_dim %cst, dims = [0] : (tensor<10xf32>) -> tensor<10xf32>
    %21 = stablehlo.multiply %19, %20 : tensor<10xf32>
    %22 = stablehlo.broadcast_in_dim %18, dims = [0, 1] : (tensor<10x10xf32>) -> tensor<10x10xf32>
    %23 = stablehlo.broadcast_in_dim %21, dims = [1] : (tensor<10xf32>) -> tensor<10x10xf32>
    %24 = stablehlo.add %22, %23 : tensor<10x10xf32>
  
    %25 = stablehlo.reduce(%24 init: %cst_4) applies stablehlo.maximum across dimensions = [1] : (tensor<10x10xf32>, tensor<f32>) -> tensor<10xf32>
    %26 = stablehlo.reshape %25 : (tensor<10xf32>) -> tensor<10x1xf32>
    %27 = stablehlo.broadcast_in_dim %24, dims = [0, 1] : (tensor<10x10xf32>) -> tensor<10x10xf32>
    %28 = stablehlo.broadcast_in_dim %26, dims = [0, 1] : (tensor<10x1xf32>) -> tensor<10x10xf32>
    %29 = stablehlo.subtract %27, %28 : tensor<10x10xf32>
    %30 = stablehlo.exponential %29 : tensor<10x10xf32>
    %31 = stablehlo.reduce(%30 init: %cst_5) applies stablehlo.add across dimensions = [1] : (tensor<10x10xf32>, tensor<f32>) -> tensor<10xf32>
    %32 = stablehlo.reshape %31 : (tensor<10xf32>) -> tensor<10x1xf32>
    %33 = stablehlo.broadcast_in_dim %30, dims = [0, 1] : (tensor<10x10xf32>) -> tensor<10x10xf32>
    %34 = stablehlo.broadcast_in_dim %32, dims = [0, 1] : (tensor<10x1xf32>) -> tensor<10x10xf32>
    %35 = stablehlo.divide %33, %34 : tensor<10x10xf32>
    return %35 : tensor<10x10xf32>
  }
}

{-#
  dialect_resources: {
    builtin: {
      torch_tensor_10_torch.float32: "…",
      torch_tensor_10_128_torch.float32: "…",
      torch_tensor_128_torch.float32: "…",
      torch_tensor_128_784_torch.float32: "…"
    }
  }
#-}

