module {
  func.func @main(%arg0: tensor<10x784xf32>) -> tensor<10x10xf32> {
    %0 = "tosa.const"() <{value = dense_resource<torch_tensor_10_torch.float32> : tensor<10xf32>}> : () -> tensor<10xf32>
    %1 = "tosa.const"() <{value = dense_resource<torch_tensor_10_128_torch.float32> : tensor<10x128xf32>}> : () -> tensor<10x128xf32>
    %2 = "tosa.const"() <{value = dense_resource<torch_tensor_128_torch.float32> : tensor<128xf32>}> : () -> tensor<128xf32>
    %3 = "tosa.const"() <{value = dense_resource<torch_tensor_128_784_torch.float32> : tensor<128x784xf32>}> : () -> tensor<128x784xf32>
    %4 = "tosa.const"() <{value = dense<[1, 0]> : tensor<2xi32>}> : () -> tensor<2xi32>

    %5 = tosa.transpose %3, %4 : (tensor<128x784xf32>, tensor<2xi32>) -> tensor<784x128xf32>
    %6 = tosa.reshape %arg0 {new_shape = array<i64: 1, 10, 784>} : (tensor<10x784xf32>) -> tensor<1x10x784xf32>
    %7 = tosa.reshape %5 {new_shape = array<i64: 1, 784, 128>} : (tensor<784x128xf32>) -> tensor<1x784x128xf32>
    %8 = tosa.matmul %6, %7 : (tensor<1x10x784xf32>, tensor<1x784x128xf32>) -> tensor<1x10x128xf32>

    %9 = tosa.reshape %8 {new_shape = array<i64: 10, 128>} : (tensor<1x10x128xf32>) -> tensor<10x128xf32>
    %10 = tosa.reshape %2 {new_shape = array<i64: 1, 128>} : (tensor<128xf32>) -> tensor<1x128xf32>
    %11 = tosa.add %9, %10 : (tensor<10x128xf32>, tensor<1x128xf32>) -> tensor<10x128xf32>

    %12 = tosa.clamp %11 {max_fp = 3.40282347E+38 : f32, max_int = 2147483647 : i64, min_fp = 0.000000e+00 : f32, min_int = 0 : i64} : (tensor<10x128xf32>) -> tensor<10x128xf32>

    %13 = tosa.transpose %1, %4 : (tensor<10x128xf32>, tensor<2xi32>) -> tensor<128x10xf32>
    %14 = tosa.reshape %12 {new_shape = array<i64: 1, 10, 128>} : (tensor<10x128xf32>) -> tensor<1x10x128xf32>
    %15 = tosa.reshape %13 {new_shape = array<i64: 1, 128, 10>} : (tensor<128x10xf32>) -> tensor<1x128x10xf32>
    %16 = tosa.matmul %14, %15 : (tensor<1x10x128xf32>, tensor<1x128x10xf32>) -> tensor<1x10x10xf32>

    %17 = tosa.reshape %16 {new_shape = array<i64: 10, 10>} : (tensor<1x10x10xf32>) -> tensor<10x10xf32>
    %18 = tosa.reshape %0 {new_shape = array<i64: 1, 10>} : (tensor<10xf32>) -> tensor<1x10xf32>
    %19 = tosa.add %17, %18 : (tensor<10x10xf32>, tensor<1x10xf32>) -> tensor<10x10xf32>

    %20 = tosa.reduce_max %19 {axis = 1 : i32} : (tensor<10x10xf32>) -> tensor<10x1xf32>
    %21 = tosa.sub %19, %20 : (tensor<10x10xf32>, tensor<10x1xf32>) -> tensor<10x10xf32>
    %22 = tosa.exp %21 : (tensor<10x10xf32>) -> tensor<10x10xf32>
    %23 = tosa.reduce_sum %22 {axis = 1 : i32} : (tensor<10x10xf32>) -> tensor<10x1xf32>
    %24 = tosa.reciprocal %23 : (tensor<10x1xf32>) -> tensor<10x1xf32>
    %25 = tosa.mul %22, %24 {shift = 0 : i8} : (tensor<10x10xf32>, tensor<10x1xf32>) -> tensor<10x10xf32>

    return %25 : tensor<10x10xf32>
  }
}

{-#
  dialect_resources: {
    builtin: {
      torch_tensor_10_torch.float32: "…",
      torch_tensor_10_128_torch.float32: "…",
      torch_tensor_128_torch.float32: "…",
      torch_tensor_128_784_torch.float32: "…"
    }
  }
#-}

